node40 _dataNEW1_48000_wd1/b1.npy (npy, 528 bytes, 1 tensors)

array f8 [50]
0	0x3f81ea5a127bf095	0.008747771920291117
1	0xbf41d5d03a9b97f8	-0.000544287370954021
2	0xbf34132f116d4040	-0.0003063192283905315
3	0xbf25a480c096315a	-0.00016511985476731322
4	0x3f6c4dafe1bfc1c9	0.00345501281662328
5	0x3f5f309876cce36e	0.001903675928771355
6	0x3f464429af1a4b48	0.000679512361062209
7	0x3f602d36790eca70	0.0019746841357684494
8	0x3f5e489d75c8cb3a	0.0018483674713364998
9	0xbf002f5bea308bbb	-3.0870430485905685e-05
10	0x3f5c9961be3b9d80	0.0017455534479554335
11	0x3f82e4c38e71a9a2	0.00922539499716352
12	0x3f7943abe39c0cdb	0.00616805214099544
13	0xbf36c655f1b62cfd	-0.0003475150894806793
14	0xbf417ba181a99a7c	-0.0005335367780617407
15	0x3f609b51ac859cf3	0.002027186889040794
16	0x3f6769e12c4235bb	0.0028581045062938382
17	0x3f6e27af83dc8a0e	0.003681032946489588
18	0x3f8166ab7ce8ea85	0.00849660849518342
19	0x3f3cd678e879b9fc	0.0004400296388444023
20	0x3f48601658e4ce21	0.000743876373042022
21	0x3f82cf185044897c	0.00918406481702471
22	0x3f33d3e9772240db	0.0003025479301266406
23	0x3f3c67505cdad991	0.00043340408306438103
24	0x3f544a4e1ceface7	0.0012384188482837345
25	0xbf067cb271bb4ae7	-4.289073532750213e-05
26	0x3f7ef2a7bc890eee	0.007555632801601082
27	0x3f737d5562902e98	0.004758199248509641
28	0x3f6c6e2faf89a470	0.0034705096589289705
29	0xbf3d3954c6ed335f	-0.0004459220862614212
30	0x3f57b8ea946f4799	0.0014478960817893903
31	0xbf50de90902a59ee	-0.0010296260594820877
32	0x3f6ccc0feedb4b68	0.0035152732078613143
33	0xbf3dc865870cb95f	-0.000454449450489577
34	0xbf242f7fcc2f4eed	-0.0001540034773755897
35	0x3f023a14ba07caeb	3.4765012291068164e-05
36	0xbf49f66a8a766074	-0.000792314550312602
37	0x3f76a97304cc8b1b	0.005532693187691585
38	0x3f72528d904e5930	0.004473259909806779
39	0x3f603fd15adbdd46	0.001983555694888092
40	0x3f6f3fdeb1dba0f7	0.003814635229776649
41	0xbf64c4e32ed69870	-0.002535289494249908
42	0xbf3e6a3d43bad8f6	-0.000464096028490415
43	0xbf009b462bcaf24d	-3.167446036431553e-05
44	0x3f816f0c9a33bb2e	0.008512590843080394
45	0x3f811c56a19f65c4	0.00835483246548819
46	0x3f702ff97ec1fbd9	0.003952002134723431
47	0x3f7a9e817f1f29ee	0.006498819204305379
48	0x3f722ad6e5b174c7	0.0044353861258887356
49	0x3f49fed82dddec26	0.000793319278940334
