node40 _dataNEW1_48000_wd1/W1.npy (npy, 313728 bytes, 1 tensors)

array f8 [784, 50]
00000000: fa15 d539 b071 76bf 6d47 b838 2d19 49bf
00000010: 9a88 9bd5 8ed1 913f 70fe 6b51 94df 4fbf
00000020: 6d6f 1906 c6e8 a13f a237 f053 1807 89bf
00000030: 18c9 4ce9 1547 7cbf 0d4a b5f0 fe40 8d3f
00000040: 3ea8 a33b 28d5 943f 19b4 9d56 9875 5f3f
00000050: deac 9b4c f85b 843f 37e2 5740 99fa 6d3f
00000060: 1eed 08a1 a31c 84bf c431 9bef 8c97 7ebf
00000070: 5b83 9680 6375 753f e800 592d 5c90 8cbf
00000080: aad7 5b13 140b 793f 3695 0f5c d0e1 60bf
00000090: bdf1 c79e 401e 8fbf 02ac 6202 5c94 72bf
000000a0: f431 3e2b f0b2 78bf 7510 4e06 e1ab 703f
000000b0: 3d54 a3b8 f404 7cbf 0a11 8e73 54d3 87bf
000000c0: 928d 3b71 e9c8 91bf 1de4 7077 9b0d 6bbf
000000d0: 6b2f 5942 b256 803f fdba 8f7a ae73 723f
000000e0: 13b8 2927 59f9 77bf a73f 3723 e43e 27bf
000000f0: 11c5 4b5f 5127 603f 4cde 679b c948 62bf
00000100: 53c2 83ac 7d5d 73bf dd89 9963 c516 763f
00000110: 7f68 24ca ac83 83bf 857b 197c e82e 863f
00000120: 8a35 a7a5 65b6 38bf 4082 546e 22fe 89bf
00000130: 6116 78e0 87ef 9e3f 20bc 17c4 2666 8b3f
00000140: 12d3 d454 b4ce 82bf dd0d 9995 f6b5 77bf
00000150: e311 d111 0852 82bf 1a53 fbe5 48c5 3fbf
00000160: 6c8b 0afb 3d30 973f 9569 0c99 0200 7a3f
00000170: 646f 396f 25f2 8c3f 7b9d 0bf8 4351 8e3f
00000180: f629 6e70 8aa2 703f ca6d 6ceb ebe8 89bf
00000190: 0892 e2d9 4728 a3bf 5dd6 f92a 9c4c 7c3f
000001a0: 9d22 da52 9758 6cbf f857 3594 9208 993f
000001b0: 7106 d99b ec58 6e3f 9993 b363 d690 8a3f
000001c0: cd17 0ed0 629d 833f a24d 690e 8dca 8d3f
000001d0: a8aa 92e0 52b9 7e3f 3a85 bf31 98be 733f
000001e0: ce32 bbce e253 563f 3e3f 6312 2b0a 98bf
000001f0: cf83 eb3e 4776 7abf 57b0 e69b f5e5 883f
00000200: 33d2 9df7 5f5d 923f 518f cd63 2c26 603f
00000210: 018b ec03 e630 88bf 30b8 022b 0056 933f
00000220: dff6 81af 7a2c 7bbf e1b9 6ab2 9ddd 75bf
00000230: 5c81 462c 8128 5b3f 6d39 8c0b b80a 44bf
00000240: 668c 4727 d398 83bf 761c 1046 8cbd 63bf
00000250: b433 b775 3ebc 8c3f f991 0664 5b01 72bf
00000260: fd5a 6638 c105 733f a7e2 7466 c243 753f
00000270: 83e7 540d ee42 803f 86cb 50d5 bbe9 543f
00000280: 60b2 0a4d 1bb8 7a3f 193f de1f 8e3b 683f
00000290: d810 8e33 bd1b 4fbf 2e44 2669 62c1 503f
000002a0: 24d3 e835 5f0d 94bf 1903 4b74 c30a 55bf
000002b0: 3391 c151 27eb 67bf ebb5 b678 a2eb 91bf
000002c0: 2a89 4d98 6590 993f 8558 d724 6f39 903f
000002d0: cb48 de88 8b82 41bf 7fbf ae41 71e2 903f
000002e0: 3930 cd23 c4d1 7cbf 809b d345 26cd 73bf
000002f0: c660 564e 4e2c aa3f f01c 5c12 20f1 713f
00000300: dcc5 45c4 4dfc 923f a486 4d7a 75e5 433f
00000310: f4da 4ba7 836b 53bf 01be 901a 83e2 8bbf
00000320: d004 e117 0201 a1bf 6cdd c09e 44a0 623f
00000330: d5c5 c1e4 7899 843f eeda 50d7 4b25 73bf
00000340: 0a37 8e55 c312 8d3f a6af 4e3b 3825 913f
00000350: 7528 7521 4faa 983f 4c89 9db5 7f67 963f
00000360: ae75 2875 3314 953f 35ea e768 6e5d 843f
00000370: c1c5 cfe2 d116 7b3f 7ab8 b60a 93c0 82bf
00000380: e4cc d974 8faa 9fbf f98f 1aba 2e6c 543f
00000390: aadd 7388 fe8d 803f b212 c0f7 868e 743f
000003a0: c58f 8d88 29e0 76bf 63dc b63d ce4f 92bf
000003b0: f703 9b6c 3590 9bbf ebbc cfd4 a629 79bf
000003c0: 1451 9a63 9e16 41bf 4655 fafe df02 78bf
000003d0: 4267 85de 0a68 5d3f 2658 09f0 8319 6a3f
000003e0: edc6 798f 9a16 393f 3360 bda8 29ea 533f
000003f0: fb27 d73a 8ba8 573f 0729 9923 f4c6 923f
00000400: 8164 dae7 04e0 733f b082 d4b3 d277 843f
00000410: 559d 021e c65a 7cbf 1fa5 b223 1911 743f
00000420: 9cb5 2705 5ee2 78bf e652 ccc0 3da8 813f
00000430: 5c6e 45c5 6998 543f 1f3e c623 40a1 823f
00000440: 842c 8563 e2fe 73bf e052 1f7c e762 85bf
00000450: 0c42 717a b6ec a73f 1cfd a39a a614 963f
00000460: 56bd 93bc c358 90bf 38a5 6027 612b 8cbf
00000470: 6c8c ac56 eeee 84bf 4831 fc33 28fe 81bf
00000480: 310f d7eb f976 a63f 2a65 431b bf10 44bf
00000490: a4c2 696a 6bdb 903f 49e2 e9a4 121a 6b3f
000004a0: f092 2aa8 1bc8 92bf 4b2e fb2f f91c 83bf
000004b0: 5e9d f8bd 7305 9abf fed9 c53d 6323 7dbf
000004c0: c53e 1c26 b77a 3e3f 0cb1 b1c8 e013 91bf
000004d0: 3d92 3db8 fb31 8cbf c311 9fde ccc4 903f
000004e0: 7865 8955 2e9b 863f 102c bb8a f981 56bf
000004f0: 9143 f71b f4af 873f 4e5b 3945 d33a 6abf
00000500: 9e94 0a24 c774 7bbf 7fa3 5bf8 d70c 703f
00000510: a751 f078 d0d8 74bf 631a 2db5 c91b 7c3f
00000520: 8be1 f809 7a9a 8a3f 2e1d 67fb c9d5 6fbf
00000530: 0ba4 ec4c e6e7 90bf 8a84 c580 b4be 77bf
00000540: d91b 8c77 2f66 8bbf 1180 20a5 a261 60bf
00000550: e666 cf65 4e4f 723f fe71 416b d0f3 3c3f
00000560: f6c0 cddb 0329 6a3f 967a 0a36 8068 7fbf
00000570: c3ed 8193 47d2 7e3f 3a32 5e7a cf65 8abf
00000580: ac56 3adc a926 81bf fb14 15f4 c4bf 933f
00000590: 0206 51c6 1249 903f cb37 f575 3854 72bf
000005a0: 9cc5 54e1 13d9 81bf 9545 3804 e9df 883f
000005b0: d212 ddf9 6738 62bf e6cf 539c ac06 873f
000005c0: 3ac6 dd4e 8f2d 81bf 20d4 7121 cd72 8ebf
000005d0: e494 55f7 b900 91bf acd5 f23f b5cf 95bf
000005e0: 55dd 0e56 bbc4 8f3f 2111 6e88 979e 8d3f
000005f0: eb47 f57f 8948 8c3f 0b5a 72da 9a9f 7e3f
00000600: b20f 77b1 7208 80bf 41a7 fa09 c835 573f
00000610: 96da ba16 76af a13f 868d 928d aa04 89bf
00000620: 9c08 4e51 e217 713f 0e12 c10d 5bdd 8b3f
00000630: dab8 a987 ff41 6cbf b71c 6de6 3f7b 68bf
00000640: 5d59 2b64 6d41 88bf 1d3d 25ee 75f9 61bf
00000650: 5584 0b1b 6cc4 723f d93d d83c 9363 813f
00000660: c7e5 7201 06a3 953f a579 3422 44d3 833f
00000670: 9bd2 fbd8 0de0 883f f4fa 19f9 7aad 7ebf
00000680: cdb2 bd6b 98b9 9e3f d332 8698 059a 81bf
00000690: d133 2cc7 3b5a 75bf 0cb1 5f31 6556 83bf
000006a0: 6fba b713 1f58 89bf 6f0f 1961 b2d5 823f
000006b0: 5d4a 40c4 4ea0 823f f0b3 fa82 ceca 84bf
000006c0: 6872 db28 64b3 803f 5f43 66d6 5280 803f
000006d0: a076 29eb 267b 7bbf 11a2 0d43 5f4c 95bf
000006e0: a55c 69db 5b16 78bf 8dfb c8b5 40cc 893f
000006f0: 4a9f aa44 10fe 72bf ce2c 260d 67bc 7dbf
00000700: 4540 7a51 9469 853f 5d6c e0bc 7ad6 833f
00000710: 9cba 2a41 0453 80bf 82bd bea4 8dde 823f
00000720: 87a7 cbfc 857d 60bf 6ce3 0745 705b f73e
00000730: d9bc fa4f e484 873f 4e4d c301 065b 993f
00000740: 2dbc 2785 8a86 78bf 4aa9 60e3 7620 843f
00000750: efd0 97a6 31df 8cbf 24fe f95e 2662 75bf
00000760: 607d e9ef c09c 923f 06d6 6464 6eb5 743f
00000770: 72a4 d54f f58d 953f 0619 9540 7afe 6b3f
00000780: ef85 604f a39e 7ebf b159 fad0 d35e 5bbf
00000790: 32a0 adec aace 7bbf 808f 09c6 7283 553f
000007a0: 1cca 9541 79b9 8a3f e12c cd5a f2d6 823f
000007b0: 2c51 fc1d b97a 8d3f 5372 1d4b c875 7d3f
000007c0: 03ac a998 7235 71bf 84cd 5124 4859 7ebf
000007d0: bbe1 5e69 1878 87bf 3fdd 10e4 c374 65bf
000007e0: 36a3 1306 fcbb 89bf 951d 1458 8aa2 88bf
000007f0: b1aa f36f 941a 943f 5ca9 3bcd 0bd4 403f
-0.0054795154404181316 -0.0007659407432944861 0.017400962627001172 -0.0009726976594208302 0.03497904610114131 -0.012220563947291489 -0.006903730002522111 0.014284126015501131
0.02034438003548921 0.0019201266936435034 0.009941043699163318 0.0036595338049177045 -0.009820249893087548 -0.007468748599148648 0.005238903694959908 -0.013947219976330819
0.0061140808299934655 -0.002060801460617735 -0.015194420667278824 -0.004536017810248262 -0.006030023727259682 0.004070166590171555 -0.006840663854935034 -0.01163354852338518
-0.017367980514689636 -0.0033023868996022846 0.007977860116760124 0.004504853780402438 -0.005853031400517866 -0.00017735037691446223 0.00197187321679649 -0.0022319734227911666
-0.004727831758132145 0.005392809916516997 -0.009528493803873992 0.010831657683579863 -0.0003770826494048021 -0.012691754333503558 0.030210612369066307 0.01337843213965867
-0.009183319891783923 -0.005788768024618443 -0.00894552521106901 -0.00048478154893176614 0.022644966552103282 0.006347665927729192 0.014133732277677509 0.01480343914722825
0.004061260965395599 -0.012651293870979869 -0.03741669211129667 0.006908998518715484 -0.0034602122821677087 0.024446764274522054 0.00370451176311875 0.012971568029067447
0.009577533697448981 0.014546491625117512 0.007500957240305674 0.004820436963173075 0.001362773410551177 -0.023476288792891646 -0.006460455230553343 0.012157362766480313
0.017934321869193148 0.0019713274945604505 -0.011812016482115608 0.018882753968391508 -0.00663421558431107 -0.005338302615810226 0.0016576062635991961 -0.0006116293580776096
-0.009568833957876954 -0.002409719440496223 0.014030921904941575 -0.004395825381298562 0.004644160048335119 0.005191573501456637 0.007940158635949995 0.0012764295872897693
0.0065232340281623225 0.002958085619816486 -0.00094935167645407 0.0010226689379104858 -0.019582259812710792 -0.0012843044980145933 -0.0029197471576926314 -0.017500437371998172
0.024964892788724637 0.015844093917472896 -0.0005343610116475215 0.016488809236477216 -0.007035986110008046 -0.004834317687005263 0.05111927706019652 0.004380345611713951
0.018540587524915483 0.0006071876165203061 -0.001185301368591571 -0.013615631340228697 -0.03321081677905513 0.0022736873852655017 0.010058350068194702 -0.004674240354737276
0.014195943878600587 0.016743544215998128 0.024087177674382027 0.02187919183723723 0.02058487322402918 0.00994383103988126 0.0066135595961766555 -0.009156368984658981
-0.030924073702817703 0.0012464958494229335 0.008083332575991548 0.00501873704707083 -0.005584871520884553 -0.017882559315435375 -0.026917299989467094 -0.006143237766976765
-0.0005214951881549489 -0.005862116798785627 0.0017948251862293795 0.0031859948069650366 0.00038281701515706265 0.0012154967143569561 0.001443992582937258 0.018337073014017793
0.004852313196942793 0.00999416934297534 -0.006922506232661736 0.004899118615108194 -0.006075255647812663 0.00862167591689329 0.0012570412555622723 0.009096623508212663
-0.004881748515184307 -0.010442551112569587 0.0467278503862226 0.021563151539337175 -0.015963610062440146 -0.013754614843565535 -0.010221349735337358 -0.008785547338924574
0.04387646678836033 -0.0006123479020302737 0.016462019319478785 0.003308330931130397 -0.01834147657304447 -0.00933260610272337 -0.025411423177641772 -0.007113826428727153
0.00046507808120653207 -0.01667739129008887 -0.013767210540842284 0.016375733459214958 0.011038171754239143 -0.001373761838226132 0.011566073516321914 -0.0032018782019735187
-0.006703164952942901 0.0039184986432950755 -0.0050895827726162085 0.006862438126353429 0.01298995345051492 -0.003886122223068298 -0.016509626813022076 -0.005797104921243643
-0.013378496967119279 -0.001999681154316598 0.004470163575172248 0.00044177854875274136 0.0031933856357043667 -0.007668019127463529 0.007524756998573637 -0.01288950054347381
-0.008374526055642782 0.019286229512791114 0.01590375266483158 -0.004474850225347947 -0.008714824022350957 0.012145824853208956 -0.002224162176306479 0.01124319889138543
-0.00838767966681352 -0.014867403586530215 -0.01660433361157211 -0.021300155666457307 0.015511954845222201 0.014462646342288612 0.01381022855517596 0.00747642983983222
-0.007828613320164244 0.0014166310792611133 0.03454178836311887 -0.012215931363533949 0.004173168233025628 0.013605796200985256 -0.0034494391268743265 -0.0029884574936747915
-0.011843542689729142 -0.0021941474271113385 0.004581854140924231 0.008490705770809836 0.02112969764559638 0.0096803019465 0.012146099266354063 -0.007489662517058394
0.03000486524199424 -0.008594554631394946 -0.005213006503947918 -0.009442129678028731 -0.012375109471546268 0.009196656788055894 0.009094825138196311 -0.010152448055430668
0.008154661652434572 0.008057257812454642 -0.006709243799006309 -0.020799149005514 -0.005880698029236663 0.012596612498894344 -0.004636825130240949 -0.007259752792730013
0.01045528291368226 0.0096864308252888 -0.007970841635452523 0.009213549223061394 -0.0020129792159097634 2.2275144432956832e-05 0.01148393982961553 0.024761289460753226
-0.005987683386123027 0.009827545942319067 -0.01409758367206179 -0.005220556151129627 0.0181760927611071 0.0050558387941257495 0.02104934024592748 0.0034172427882907
-0.007475507669398847 -0.0016705578345060752 -0.006788890527651902 0.0013130780063414782 0.013049075426100613 0.009199040790596804 0.01439423201330977 0.00719240417114671
-0.004201362268399403 -0.007409364513580544 -0.011459532466560831 -0.002619154548053309 -0.012565583167501875 -0.012028771222061954 0.01963264401721671 0.0005135591149756746
