node40 _dataNEW1_48000_wd1/W2.npy (npy, 6128 bytes, 1 tensors)

array f8 [50, 15]
0	0x3fb51813c2eb6a44	0.08239863880900439
1	0xbfbb4f9f396ab56d	-0.10668368484285447
2	0x3f63313cd56e8905	0.002342814269881479
3	0x3fd2beb3812d5adb	0.2928894769187715
4	0xbfccdd2c9956fe05	-0.2254997013787802
5	0xbfb5562afd06316c	-0.08334606816624096
6	0xbfb9d5532a4870b5	-0.10091132910059993
7	0x3f9c61dec4e7fc88	0.02771709515399981
8	0xbfb1bb99708845e7	-0.06926878926630985
9	0x3fc402d55f370777	0.15633647107284407
10	0xbfb9b1d903c751a1	-0.10036999075175014
11	0x3fc962620628fc5a	0.19831490803514634
12	0x3fa4a7a2b5239696	0.04034145795030246
13	0xbfc17012e1d98cd1	-0.13623271968672282
14	0x3f8b6e700106ce31	0.01339423659451375
15	0x3f637d5435fbae59	0.002379097437246885
16	0xbf4e221aec19dbc9	-0.0009195929962534317
17	0xbf8b4db58adda130	-0.013331812191339582
18	0xbf69a6fb7160ee6a	-0.0031313811296323395
19	0xbf5cffba3427f61c	-0.00176995452841256
20	0x3f8a52e432b00e9e	0.012853415295473621
21	0x3f49863017d69eb4	0.0007789358930283181
22	0x3f4bc549fe7b8ea2	0.0008474932955917123
23	0x3f6c3200e73c4dbf	0.0034418122903702992
24	0x3f82ddcbc4796b2d	0.00921210473386721
25	0xbf93c0f381338049	-0.01929073787766836
26	0x3f97313a2b3a0a92	0.02264872444949135
27	0x3f0d3abef4e5d47b	5.575080159562429e-05
28	0xbf4c56b50ccf6769	-0.0008648284943959364
29	0x3f8124fc82bf2076	0.008371327152318236
30	0x3f79b75143044fba	0.006278340748639916
31	0x3f8c14d6bbc6ced0	0.013711621861922124
32	0xbf6f49dddedb4eb2	-0.00381940206612249
33	0xbf8320f5789f2626	-0.00934020780904905
34	0xbf822e4df206760d	-0.008877381275676855
35	0xbf8820c9f79f89d3	-0.011781289929733518
36	0x3f6b8f67c595688c	0.0033642794411835094
37	0xbf7f44cb56bbdbf9	-0.0076339667245894855
38	0x3f6a7fe5bac8c68a	0.003234814348865471
39	0xbf88dfde39349d17	-0.012145744438909518
40	0xbf8188ee4af87f07	-0.008561956084178769
41	0x3f7f49c8ddc7ec10	0.007638725885494871
42	0x3f66e9882df7ceba	0.0027969035870628297
43	0xbf834d552fdac918	-0.009424844286830367
44	0xbf6fe709f874d1a5	-0.003894347642608947
45	0x3f78d610dea0c5de	0.006063524148019776
46	0x3f73822d9ac4ebe3	0.004762819426384876
47	0xbf84f261cdfde7f8	-0.010227932070609555
48	0x3f8120bec9f40a44	0.008363237894177485
49	0xbf92a3dbfd7a4ca3	-0.018203198762944194
50	0xbf26e37d8e8ba9eb	-0.00017462642360695167
51	0x3f94149509f9ffb2	0.01960976479904248
52	0xbf8f33a17cc662c3	-0.015235196705178372
53	0xbf511805aa53fc41	-0.0010433249784112116
54	0xbfa0243906a87d5c	-0.03152635771061327
55	0x3f2265dba89d783e	0.00014036470775641465
56	0x3f6e6f04a9e1000d	0.003715046986172871
57	0x3f7fee53fa95ff22	0.007795646707904587
58	0xbf791999e2f7518a	-0.006127930755117092
59	0xbf8d2e7ab5349fdf	-0.014248808531718225
60	0x3fbf8b7141e0488d	0.12322147234252352
61	0x3fc9f6bbbd27a0d1	0.20284220443796255
62	0xbfb3cf18b4aab0f5	-0.07737879191217074
63	0x3f71150bb1596b83	0.004170461344609746
64	0x3fc0b43d6a833b16	0.1305004854279665
65	0x3f4320be45032099	0.0005837372828177034
66	0x3fa3107a7841360c	0.0372350951953245
67	0xbfba154f6bf0b205	-0.10188766846903981
68	0xbfa6ef765890cdbc	-0.044795702277407895
69	0xbfa730ac8ff66856	-0.04529322869639489
70	0x3f75767f4f426710	0.005239960959579695
71	0xbfbb6a5dc05a7de8	-0.10709176965837452
72	0x3fb0a72ea4cf5eed	0.06505099795992537
73	0xbfafb9a359392ca6	-0.061963181153794
74	0xbfbc24872b712f12	-0.10993237314795248
75	0xbf93e21aedbbd908	-0.019417210350149566
76	0xbf99217f9f2f1195	-0.024541849222957508
77	0x3f845b4ca784861d	0.00993976484511721
78	0x3f8486eeabcaca09	0.010022987954788414
79	0x3f94cfb233a96127	0.020323547747780026
80	0x3f966077f409befc	0.021852373380567322
81	0x3f838e4f742673a2	0.009548779232142316
82	0x3f8c3bfe908413e0	0.01378630522277463
83	0x3f60d4e38e1c0db7	0.0020546383319712497
84	0xbf7c52890f749375	-0.006914649383621509
85	0x3fa87231c1ca9e3b	0.04774623385065665
86	0xbf6a04bec74b54f2	-0.0031760908262677906
87	0xbfa2b6bcbb5d24ee	-0.03655042445331867
88	0x3fad42126e3c9216	0.05714471431409522
89	0xbf9f6ddbeae624de	-0.03069251652917592
90	0x3fbee8fb6725c5b6	0.12074252384424863
91	0x3fc498a302bb9135	0.16090810426170213
92	0xbfb4f5baae0e45b2	-0.08187453030975325
93	0xbfb8ce4a55427ba2	-0.09689774114165897
94	0x3fa73a8aaae524fb	0.045368512498109546
95	0x3fa2acb41940a9cc	0.03647387321719328
96	0x3fa28d77ad88230a	0.03623556130702894
97	0xbfa885a038dad9b3	-0.04789448446301794
98	0x3f924e9e7ec59a43	0.01787803314928228
99	0xbfafb0433ad121a6	-0.06189165204029061
100	0x3f9250147132b6fb	0.017883605393470763
101	0xbfb6a187e35f20f1	-0.08840226460518232
102	0x3fa423c4c0339474	0.03933539243897935
103	0xbfb39d5f9408296f	-0.07662007679042458
104	0xbf98b27e5862363c	-0.024118398804196625
105	0x3f9001e33ef3da7c	0.01563220092517746
106	0x3fb5a0bb0a3fcbaf	0.08448380470490123
107	0x3fb7818e9a387542	0.09182063355588801
108	0xbfb2afe9441b9685	-0.07299669182574504
109	0x3f99bc112dae75ba	0.025131481564690118
110	0x3f9b057641b22cd8	0.026388023147359302
111	0x3fb72f6c57092500	0.09056737065215614
112	0x3f74fca1cce1b9dd	0.005123741180894173
113	0xbf9f66313dc02a24	-0.03066327037235274
114	0xbf9a32e3a419b4f9	-0.02558475197877372
115	0x3f752ad729e30f0c	0.005167808993238553
116	0xbf94c3ab015d62c6	-0.020277664144802164
117	0xbf91944e8d122cec	-0.017167308197298434
118	0xbfb15c1d94a9145c	-0.06781182174116068
119	0xbfba7587f798a148	-0.10335588259534234
120	0xbf89a24f17551cb0	-0.012516611003447004
121	0x3fc79d39eb8df528	0.18448566438375136
122	0xbfaa8ea20aa5e2a3	-0.051869453239253425
123	0xbfd1f289f8683975	-0.28042840250500173
124	0x3fc74cfb68ddf404	0.18203680630168162
125	0x3fb096f720eb7763	0.06480354837137052
126	0x3fb939b894fa92f3	0.09853700291803218
127	0xbfae07c88b8bf1d3	-0.05865313247156547
128	0x3fc22e494903fc08	0.14203754487240894
129	0xbfcea20a6d8ef1b1	-0.23932009076623964
130	0x3fc58c04593ad37f	0.16833547932551693
131	0xbfc0ecf9b42036ee	-0.13223191542822782
132	0xbfb991c375b19387	-0.0998804247224837
133	0x3fabe26957c7f143	0.0544617576269695
134	0xbf7d38bf8c504e07	-0.007134197458998687
135	0xbf812e6b0e9bb6e8	-0.008389316924389559
136	0x3f60e977d411aea5	0.0020644512556396593
137	0xbf84172a6a3df959	-0.009809810034991416
138	0x3f5210088d84c83b	0.0011024554751881816
139	0xbf7d13797a5b7fc5	-0.007098650477672612
140	0x3f843413d3e45a19	0.009864954856806428
141	0xbf7dae1d87a6e5a3	-0.007246127463468896
142	0xbf84793a9e84501b	-0.009996850931692383
143	0xbf537217c8fa06b0	-0.0011868698383356406
144	0x3f771cfd71571f28	0.005642881403623602
145	0xbf68ce6d5fbccece	-0.0030281196794933246
146	0xbf42f325948d5a7d	-0.0005783017632932788
147	0xbf842d66a767985c	-0.00985222051981454
148	0x3f94e0e5e2778635	0.020389167735521425
149	0x3f7d6e6bd454e462	0.00718538399569821
150	0x3faeaa0eedc579ee	0.05989119198305902
151	0x3fb6e5e04aab85e4	0.08944513152120909
152	0xbfb6f04afdf04407	-0.08960407924338663
153	0xbf8888ed541a81d4	-0.011979917649399242
154	0x3f9f7f416912f92c	0.030758878744330406
155	0x3f91f54975336a39	0.017537257936832005
156	0xbf7199533b0c2282	-0.00429661285375771
157	0xbfa72b255ebdcbac	-0.04525105268012139
158	0xbfa936f9effe9304	-0.04924756102199093
159	0x3fa70b5214e5bfcb	0.045008244563063814
160	0xbf9f113d6fcd5e50	-0.03033920283209418
161	0xbf99ce348c938576	-0.025200673179715825
162	0x3fb6e6de10e0ace5	0.0894602576451465
163	0xbfa17905d106c239	-0.03412645508376894
164	0xbf67c4821fadb136	-0.0029013196448685287
165	0x3fb9dce4a15c6861	0.10102681102253676
166	0xbfbebc7b31650d74	-0.12006349521566567
167	0xbfc11885c6923ac3	-0.13356086917743512
168	0x3fd5516d94c00afa	0.33309497381576103
169	0xbf9c46ac4d078258	-0.027613346292016366
170	0xbfae5cd0e501a24b	-0.05930187983978338
171	0xbfa5441244b4b620	-0.041534968268347905
172	0xbfa53197bb485956	-0.041393987285277475
173	0xbfc08705d12415a2	-0.12912056648216913
174	0x3fbf3bb5c3bcbb35	0.12200485256901746
175	0xbfb05c9cc295b841	-0.06391315222364914
176	0x3fa840bc8783a910	0.04736889986254955
177	0x3fb860a8c2f3186a	0.09522490272056108
178	0xbf70d40563a6b6f3	-0.004108449031645855
179	0xbfba89797033a4ee	-0.10366019238758259
180	0xbfc12d4e92fcc648	-0.1341951577865521
181	0xbf91ea1fc7b8a8dd	-0.017494675221464518
182	0xbf82ceed8097abde	-0.009183745848494181
183	0x3fce2e9d142e060e	0.23579753384915175
184	0x3fa4ee9c56bace79	0.040882955157397434
185	0xbfa7ac99efb134cd	-0.04623871851854631
186	0x3fa5894f0b7fec9b	0.04206320777299163
187	0xbfbf1439fc30117e	-0.12140238196304229
188	0x3faceac48c5cfb30	0.0564786359159285
189	0xbfab4e25c775c2fa	-0.053330593679566676
190	0xbfa5c7870e876ef6	-0.04253789951664359
191	0x3fc2636010066342	0.14365769178837168
192	0x3fbb3b62214cbabd	0.10637486756307175
193	0xbf99482bdb075340	-0.024689374202199632
194	0xbfb7cc50a47fcbcf	-0.09296134964078749
195	0xbf73ed514acad5bf	-0.004864995524874015
196	0x3fcabcea8d555c4c	0.2088902654747663
197	0xbfc20482308f6dff	-0.14076259013278045
198	0xbfd1f268a5fbcf75	-0.2804204579290322
199	0xbf9e7675d6c7acd8	-0.029748765215043743
200	0xbfb0e1d6f8adc242	-0.06594604083307679
201	0x3f45de6f6689e4cf	0.000667385477824878
202	0x3f989213dd64e5e7	0.023994741809678557
203	0x3fc00a35fb33ba89	0.12531161084867318
204	0xbfb827dda3eb227f	-0.09435830356518159
205	0x3fb2fbe859c76b2d	0.07415630523557289
206	0xbf978cdb831338df	-0.022998266101063144
207	0xbfc2a76804945b0b	-0.14573383544549076
208	0x3fbd5746ebb6d8bf	0.11461299185507111
209	0x3fd15786c75ccf70	0.2709671923541839
210	0xbf964e9888a14dbd	-0.021784194316138306
211	0xbf5ba204f52c07a0	-0.0016865776457852602
212	0xbf4b75559e09599e	-0.0008379619649286245
213	0xbf75acba0ffe165a	-0.005291678244139309
214	0xbf723091069323ad	-0.0044408478799561725
215	0xbf91cae492a7a362	-0.017375537348843458
216	0x3f6f27699b4482fe	0.0038029730441312406
217	0xbf6cb2315b32550a	-0.003502937697315138
218	0xbf741f04e632f77f	-0.004912394654807416
219	0xbf83dc1d0e09a49b	-0.009697176924605968
220	0x3f797c4c34b25f34	0.006222055129135918
221	0x3f86940d7f187e3c	0.011024575654175021
222	0xbf9060b7bb1d317d	-0.015993948741468856
223	0xbf78f9df75327236	-0.006097672349963326
224	0x3f992e9d645bce04	0.02459188389816626
225	0xbf477a50337cb295	-0.0007164851767576692
226	0xbfa002a8a2ad6359	-0.03127028451735354
227	0x3f54fece97fa7bdd	0.001281453849436557
228	0x3fa37334253f1c0d	0.03798830942792373
229	0x3f86fdef8ca5b8df	0.011226531486240919
230	0xbf92966ac7f5a5c1	-0.01815192075210859
231	0x3f9de44baf5e2104	0.029191191271395148
232	0x3f83b206ecd067b8	0.009616903402321117
233	0x3f9084b24f136933	0.016131197048573753
234	0x3f55d608523089fb	0.001332767606762374
235	0xbf7e117e48fe424d	-0.007340901662147359
236	0x3f8f9b8c2fa921c2	0.015433402256477605
237	0x3f91a3be30927f37	0.017226192202200976
238	0xbf896d25b665e9bd	-0.012415213230941963
239	0xbf9800ac0d99b280	-0.023440063791371646
240	0xbfc792cc68b5035d	-0.18416743385935322
241	0xbfc5148c7f2686d2	-0.16468960007210015
242	0x3fcf7040164c4f96	0.24561310852788826
243	0xbfba82a98be1fddf	-0.10355624833208975
244	0xbfc6fd3a8bdf67f7	-0.17960292653771123
245	0x3fbad9f329741ddb	0.10488815080690676
246	0xbfa96c9bae442efc	-0.04965673925661737
247	0x3fbf5c0c542d9f7b	0.12249829344875522
248	0xbfb1062ab0ba7b9c	-0.06650034727725401
249	0x3fca4d345fd5f150	0.2054810970256633
250	0xbfb3bc5f4c792e18	-0.0770930825903452
251	0x3fc0dcd67305da89	0.13173943153715964
252	0xbfb373677cdbc16a	-0.07597967909146566
253	0xbf9fe0b27800b3df	-0.031130589079271572
254	0x3fbe2a619798f165	0.1178341860876962
255	0xbfc0b5321864575f	-0.13052965346349318
